Backend/safedocs_dataset/models/mlp_head.pt (torch, 200167 bytes, 3 tensors)

net.0.weight f4 [128, 384]
00000000: 76ca cc3c 84f5 f9bc c09c 9dbb 2b91 3ebc
00000010: b66d d1bc df1d 05bd 397c 273d 9584 8c3a
00000020: a52a 88bb be77 a63c f21a 07bd ba1f 063d
00000030: f8ae 19bd 035e 40bd 6fa7 433d d8f0 3a3c
00000040: 86a8 d33b 73f5 483d 7c30 193d 5d30 08bb
00000050: 401f f43b 3f49 d8bc c3b4 dd3c b4c7 1f3b
00000060: fe63 ebbc 4c97 453d 2474 b2bb b7e9 643b
00000070: e45a cb3a 62b4 083d a6cb c3bc 6a6c 14bd
00000080: 8130 4bbd 805c 95bc e47d 46bc 478a 89bc
00000090: a682 453d b0b1 8bbb 3c9d 98bc f385 d53c
000000a0: 3b0f eebc 8066 1f3a 0976 43bd 5730 0cbc
000000b0: 3a82 aabb 9c93 f1bc 6df0 4abd 6c7f 16bd
000000c0: 7ae6 213c 1525 b4bc 1a71 efbc 7bb7 f8bb
000000d0: 2a6e e33c 993d f93b 779f 843c f532 4f3d
000000e0: 01f6 e5bc 34f6 263d 0cd4 8cbc 94e9 02bd
000000f0: 7827 513c 24e6 babc 339d f53b e85b e73c
00000100: 5f84 2f3d 1f4e ce3c 66ff 7e3c 18c3 0e3d
00000110: 3383 c9bc fd15 b43b a4dc 3fbc da37 44bc
00000120: c6d5 e3bc 4716 09bd 6e9d 3abd 587a 0ebd
00000130: 0c37 303d cefc b43c 998e 80bc 338c 00bd
00000140: d533 ff3c 5661 d7bb c691 fa3a 9a26 193d
00000150: 2ea7 df3c 6e12 013d dac9 233d 9630 83bc
00000160: c338 673c 6d56 e03c 0b3a 083d 90cf 323d
00000170: 1d83 7b3c 6599 42bd f7fc 323d 25e0 12bc
00000180: e2c7 3b3d cc1a 0abd ef86 5ebc 68f0 46bc
00000190: a48c 703c fc82 a0bc 62c1 c9bb b43b 043d
000001a0: e690 01bd 8031 e6bc 6508 2c3b 501d 0cbc
000001b0: b449 b7ba af13 39bc fa1a 88bb cafc a73c
000001c0: c82f d9bc 0f7e f6bc f28d 463d 0004 21bc
000001d0: 1518 54bc ec3b 083c 4056 193c b05e 7f3c
000001e0: fd61 033d 1458 65bc a8a0 64bc f8ae da3c
000001f0: 9bd0 bcba a3c0 833c 88d3 9cbc cefd b6bb
00000200: e649 e3bc b9ca f93c 8fbc 20bd 8aba 9abc
00000210: b112 3bbd ec4e 363d 42ee 39bd 0fef 103d
00000220: 99ad e93b f89a 02bd da8b 1a3c 2ecb ea3c
00000230: 52bc 133d 7713 19bc 7f64 a6bb 412d ed3c
00000240: 9610 86bb b16a 343d d00e 8f3c 495c 29bc
00000250: 7169 263d 1dfe 4cbd 80fb e8bc 1258 4e3d
00000260: 89c0 b23c efdf 18ba 99d2 c83c ac83 33bd
00000270: e562 1a3c 5860 c5bb 03f4 fcbc 5fdc 09bc
00000280: af4b b4bc 754a c53a 9fa1 fcbc 4727 1fbd
00000290: 1476 40bc c491 c03a dc98 7a3c 0a0c 473d
000002a0: 7db7 96bb 74d0 1ebd 7c78 bd3c 8a6a 473d
000002b0: 55cd 4ebd f8e4 863b 74f8 08bd b995 35bc
000002c0: b732 15bc d42a 3a3d 7389 2dbc 92bd 0cbd
000002d0: f74c 7dbc cb0f 88ba f78a a6bc dc0c 13bc
000002e0: df7b 983c 23ef 323d 5707 06bd 3685 13bd
000002f0: 1294 573a 0b51 803b 5500 3a3c f228 05bd
00000300: 8ecc 3a3d d74d b7bc 52dc a7bc eb8c a03b
00000310: de35 ffbc 2672 4e3c 8d49 e9bc d2a4 ac3a
00000320: 5c81 993c 46e9 fb3c 4bf5 953c cd02 17bd
00000330: a957 ccbc 7467 1a3d 17ee d23c 535d 6d39
00000340: d258 03bd cfa0 3bbd a261 193d 276d 3b3c
00000350: dce7 9a3c 8e46 d23c f92c da3c d56e 403d
00000360: 69e1 6fbc 1bd8 13bb 38cf 07bd f0b7 11bd
00000370: fd05 1dbd b94d bdba e219 373c 05c7 493d
00000380: 7598 28bd bab5 4a3c 1e52 313d e859 a03c
00000390: 8d2b a83c 177f 0ebd 2690 ccbb f4ea 343d
000003a0: 4743 443c 31a2 e63c 3220 493d 93c6 fdbc
000003b0: ddb9 48bc 7b91 463d c1dc c3bc 2f29 d9bc
000003c0: d88b 65bb 9d11 b3bc d0dc 28bd 3abf b03c
000003d0: 0353 77bc a8b0 023c 33e3 683b d8e3 1c3d
000003e0: f8b0 27bd f45e 303d 7ba7 ddbb 25f5 0a3d
000003f0: 2451 da3c 2e95 4cbd f16c fabc 1da4 443d
0.024998885 -0.030512579 -0.004809946 -0.01163129 -0.02556501 -0.03249919 0.040889952 0.0010720665
-0.0041554742 0.02032077 -0.03298468 0.0327451 -0.03752038 -0.046964657 0.0477671 0.011409961
0.0064592985 0.049062204 0.037399754 -0.002078078 0.0074500144 -0.026402114 0.027063733 0.0024380507
-0.028734203 0.04823999 -0.005445974 0.0034929344 0.0015514758 0.03337515 -0.023900818 -0.036236204
-0.049606804 -0.018232584 -0.012114976 -0.016789569 0.0482203 -0.0042631254 -0.018629663 0.026064849
-0.029059997 0.00060806423 -0.04771999 -0.008556447 -0.0052035125 -0.029489331 -0.049545694 -0.036742613
0.00988161 -0.021990338 -0.029228736 -0.007590232 0.027762491 0.00760622 0.01618932 0.050585706
-0.028071405 0.04076214 -0.017190956 -0.03196104 0.012765758 -0.022814818 0.0074955462 0.028242067
0.04285085 0.025183735 0.015563821 0.034854025 -0.024598693 0.0054957853 -0.01171032 -0.011976207
-0.027811896 -0.03346851 -0.045560293 -0.034784645 0.043021247 0.022093203 -0.015692996 -0.031383704
0.031152645 -0.0065728826 0.001911693 0.03739033 0.027301397 0.031511717 0.039987423 -0.016014379
0.014112654 0.027384961 0.03325848 0.04365498 0.015351084 -0.04750957 0.043698277 -0.008964573
0.04584492 -0.03371696 -0.013581975 -0.012142278 0.014681969 -0.019593708 -0.006157086 0.0322835
-0.031632327 -0.028099775 0.002625012 -0.0085519105 -0.0013983757 -0.011296197 -0.0041536065 0.020506281
-0.026512042 -0.030089406 0.048475213 -0.009827614 -0.012945195 0.008315068 0.0093589425 0.01558654
0.03207587 -0.01399805 -0.013954319 0.02669476 -0.0014405431 0.016083067 -0.019143835 -0.005584455
-0.027745198 0.030492174 -0.039242323 -0.018887777 -0.045672122 0.04450886 -0.045393236 0.035384234
0.00713129 -0.03188607 0.009432757 0.028661337 0.036068268 -0.00934302 -0.005077898 0.028952243
-0.0040913327 0.04404706 0.017463118 -0.010336944 0.0406279 -0.05004703 -0.028440237 0.05037696
0.021820324 -0.00058317085 0.024514483 -0.043826744 0.009422992 -0.006023448 -0.030878073 -0.008414357
-0.022008745 0.0015052097 -0.030838786 -0.038855817 -0.011746902 0.0014691879 0.015295234 0.048595466
-0.00459951 -0.038773015 0.02312874 0.048685588 -0.05048879 0.0041166507 -0.03344007 -0.01108306
-0.00910633 0.045451 -0.0105918525 -0.034360476 -0.015460244 -0.0010380683 -0.020329935 -0.008975234
0.018613754 0.04368509 -0.032721844 -0.03601571 0.00082236633 0.003915911 0.011352618 -0.03250975
0.045605235 -0.022375984 -0.0204908 0.004899611 -0.031153616 0.012600457 -0.028477455 0.0013171679
0.018738441 0.030750882 0.018305441 -0.036867905 -0.024944143 0.037696317 0.025748296 0.00022636847
-0.032067128 -0.045807656 0.037446626 0.011439598 0.018909387 0.025668409 0.026632773 0.046980698
-0.014641144 -0.0022559229 -0.033156604 -0.035575807 -0.03833579 -0.0014442719 0.011175605 0.049262065
-0.04116102 0.012372429 0.043291204 0.01957412 0.02052858 -0.03478917 -0.00624277 0.04416938
0.011978931 0.02815351 0.04910297 -0.030978477 -0.0122513445 0.048478585 -0.023908975 -0.026508896
-0.003502598 -0.021858985 -0.04122621 0.021575559 -0.015095475 0.007976688 0.0035535812 0.038303226
-0.040940255 0.043059304 -0.00676435 0.033925194 0.026650019 -0.049946956 -0.030569525 0.048008073

net.0.bias f4 [128]
00000000: 9172 943d 2020 d3ba c529 1dbd 3bf8 b6bb
00000010: cb90 ad3d 876d 683d 56a8 e6b8 bb1e c63d
00000020: 064d 9ebc f2a6 e13d 21b7 63bc 9182 8cbb
00000030: 893f 16bd 60ce 803d 606d 22bd 961e e33d
00000040: 26ab bf3d ba41 25bd 9ee6 26bd 3fc3 9f3d
00000050: 60da 9f3d ab79 2fbd 8582 c53d 7375 31bd
00000060: 46b0 8c3d 15b7 8a3d 746b adbc 1598 d63d
00000070: b03c e1bb c6c1 21bb af8c 15bd a632 28bc
00000080: 86b8 23bd 332a ceba db1f 0bbd 244a b53d
00000090: 8444 1c3d 05f6 e4bc 222d 0cbc f9d0 5c3d
000000a0: 99e0 f2bb 2a0c 00bd 0332 0bbc 2a46 a03d
000000b0: f71e 8b3d aa01 903d d745 c9bc 3379 efbb
000000c0: f378 55bb fcf2 afbb a5b1 42bd 1742 fbbb
000000d0: 106a 7a3b 081c 23bc 1c63 58ba f3cc 9ebc
000000e0: 089a fabb 0e64 8e3d facd 26bd fd4a 3fbd
000000f0: 5820 a23d cee6 afbb 6f21 09bc c253 c0ba
00000100: de0f 9abc 9241 9b3d a8e2 c3bb a9d3 723d
00000110: e6f4 66bc 7ce0 c63d 3e23 e0bb 84d0 e53d
00000120: fd0f c73d d39b c13d e194 4abb 6ed3 03bd
00000130: ec3b ccbb b574 ddbc b6e3 03bb 93d0 183c
00000140: 4f23 9e3d 3043 3dbd 6df1 47bd 1c31 5fbc
00000150: 55c9 ae3d d703 09bc 36d6 743d d41b 10bd
00000160: fda3 a4bc a7f6 743d 17ff 0abc 111b 80bc
00000170: cff7 a43d a844 40bd e040 853d 088d 81bc
00000180: 03ed 03bc a67a c5bb af8e 19bd 04df bb3d
00000190: 944a 00bd 9b93 c13d 18c9 67bc 196c a03d
000001a0: 215b a43d 004a 90bc 0b8d 19bd a095 00bc
000001b0: 60b0 0ebd 7d8f a13d df3c 44bb 355c 4cbc
000001c0: 55b8 2fbd 6a7b a03d 8a0f 9a3d efb0 69bc
000001d0: 0e47 89bb e0b0 e53d 790b 0abc 6025 66bc
000001e0: a5d9 18bd 4555 01bd 304d 4ebd 7829 e7bb
000001f0: 7e69 983d 1a9d 25bd 5259 a93d 3773 a3bc
0.07248414 -0.0016107596 -0.038369913 -0.0055837906 0.08474883 0.05674508 -0.0001099861 0.0967383
-0.019323837 0.110181704 -0.013898642 -0.0042880257 -0.036681686 0.06289363 -0.03965509 0.11089818
0.09358816 -0.040345885 -0.040747277 0.07800912 0.078053236 -0.04284064 0.09644035 -0.0433249
0.06869559 0.067732014 -0.021169402 0.10478226 -0.0068736896 -0.0024682148 -0.03651112 -0.010265982
-0.039970897 -0.0015729129 -0.033965927 0.08852032 0.03815128 -0.027949343 -0.008555682 0.05391023
-0.007412028 -0.0312616 -0.00849581 0.07825883 0.067930155 0.070315674 -0.024569435 -0.0073081492
-0.0032573312 -0.005369542 -0.047532696 -0.0076677906 0.003821019 -0.009955414 -0.00082545145 -0.019384837
-0.0076477565 0.06952678 -0.04072378 -0.046702374 0.07916325 -0.0053680902 -0.008369788 -0.0014673399
-0.018806394 0.07580866 -0.0059779473 0.059283886 -0.014096474 0.09710786 -0.0068401387 0.11221412
0.097198464 0.09453549 -0.0030911493 -0.032184057 -0.006232729 -0.02703319 -0.002012474 0.009327072
0.07721578 -0.046206653 -0.048814226 -0.013622548 0.08534495 -0.008362732 0.0597746 -0.03518279
-0.020097727 0.05980554 -0.00848367 -0.015637906 0.08055078 -0.046940476 0.065065145 -0.01581432
-0.0080521135 -0.0060265837 -0.03748959 0.09173396 -0.031321123 0.09451982 -0.014147066 0.07833118
0.08025194 -0.017613411 -0.037488025 -0.007848173 -0.034836173 0.07888696 -0.0029943509 -0.012473156
-0.042900402 0.07836039 0.07522495 -0.014263376 -0.0041893786 0.11215377 -0.008425587 -0.014046997
-0.037316937 -0.03157546 -0.05036658 -0.007054504 0.07441996 -0.040433027 0.082689896 -0.0199524

net.3.weight f4 [1, 128]
00000000: 33eb 16be 2a68 e8bc 34f8 66bd 0f6d 4c3d
00000010: 11bf 02be 7d73 d4bd 3f3b 7c3d c044 fabd
00000020: a926 683d e454 10be 5919 3ebd 28eb 123d
00000030: eed5 97bd df6f 82bd e7de 20bd 7322 19be
00000040: c9ef 11be 12dd febb 8d35 78bd 4c1a bcbd
00000050: 4e18 c0bd e521 383d eb1d aabd 8f8b 7ebb
00000060: 3a2f d2bd 1604 e2bd ff37 9a3d 74e0 8fbd
00000070: 123e c1bc 1cb9 b73c c6e1 3b3d a2e8 583d
00000080: 7849 86bd 1cae a33c 3e65 a1bd 0f68 13be
00000090: d8fc dabc 2ce9 5a3d 8692 733d 54c2 6fbd
000000a0: 4239 103c 23bb cebb 2030 84bb e1ea efbd
000000b0: 913d 41bd e886 c4bd 56c6 2f3d 2316 893c
000000c0: bf14 4eb9 b230 05bd 2a81 603c e20f 2a3d
000000d0: 338e d4ba 9ab8 32bd c88d 433d c6ed f0bb
000000e0: 2ceb d5bc 8449 1ebe 629f 0dbd ff8e 6e3d
000000f0: 2098 e8bd 84a9 5e3d e524 023d da25 383b
00000100: 6ad5 963d cb48 07be aada cd3c 8aec 17be
00000110: 04b5 3f3c e3c7 bdbd b325 34bb b1d2 c1bd
00000120: 7c58 e0bd bb69 f3bd 480f aabc 14b9 2dbd
00000130: d79a 0e3d f30c 553d bb08 3b3d f0d0 12bc
00000140: f3c9 c8bd 8a56 653d 4847 df3c f23f aebd
00000150: bed0 a9bd 1b8d 303c 8584 d0bd 32da 2e3d
00000160: a7f0 d73c bba6 0bbe 90ec 46bc 31cd 933d
00000170: cc76 b0bd d805 023d e06f d8bd 2896 f2bc
00000180: dd9e d3b9 4aaf a03c 031a 7fbd 8ac0 fdbd
00000190: 9b6a 9c3d 5851 92bd 70e3 93bd a675 cbbd
000001a0: c673 b0bd 991e 0ebd 9b1c 873d 7e09 843c
000001b0: 8857 9b3d 0717 ecbd 8c3e 133d e8cf 4bbd
000001c0: 7204 9d3d 1528 a5bd b8db 56bd 8bbf efbc
000001d0: 12ea 453d 18d8 8ebd b832 733d 7add 7f3d
000001e0: 723d cebc 51ac 8dbc 4329 90bd d0d6 013c
000001f0: 2cd0 dcbd 21a2 94bd 744f 07be 9271 493d
-0.14738159 -0.028369982 -0.05638905 0.049908694 -0.12768199 -0.1037359 0.06157994 -0.12220144
0.056677494 -0.14094883 -0.046410892 0.035868794 -0.07413851 -0.06368994 -0.039275076 -0.14954548
-0.14251627 -0.0077778185 -0.060597945 -0.09184703 -0.09379636 0.0449542 -0.08306488 -0.0038840508
-0.10262914 -0.110359356 0.07530212 -0.07025233 -0.023589168 0.022427134 0.04586961 0.05295623
-0.06556982 0.019980483 -0.078806385 -0.14395164 -0.026731893 0.053445026 0.059465908 -0.058534935
0.008802714 -0.0063089295 -0.0040340573 -0.117147215 -0.047177855 -0.09596044 0.042913757 0.016734188
-0.0001965342 -0.032517143 0.01370267 0.041519053 -0.0016216695 -0.04363308 0.047742635 -0.0073525636
-0.026113115 -0.15457731 -0.034575827 0.05824184 -0.113571405 0.05436088 0.031773467 0.0028098733
0.07364924 -0.13211362 0.025128681 -0.14836326 0.011700872 -0.09266641 -0.002748829 -0.09464014
-0.10954377 -0.11885401 -0.02075924 -0.042412832 0.034815636 0.052014302 0.045662623 -0.008960947
-0.09804144 0.055990733 0.02725567 -0.0850829 -0.082917675 0.01077583 -0.10181526 0.042688556
0.02635987 -0.13637821 -0.012141362 0.072168715 -0.08616409 0.031743854 -0.105682135 -0.029612616
-0.00040363419 0.019614834 -0.062280666 -0.123902395 0.07637521 -0.07144421 -0.07221115 -0.09934549
-0.08615832 -0.03469715 0.06597253 0.016117807 0.07585055 -0.115278296 0.03594832 -0.04975882
0.076668635 -0.08064286 -0.052455634 -0.02926614 0.04831893 -0.0697481 0.05937454 0.062467076
-0.025175784 -0.01729408 -0.0703912 0.00792475 -0.10781893 -0.07257486 -0.13213903 0.049180575
